cnn.pt (torch, 576379 bytes, 13 tensors)

weight f4 [16, 1, 4, 4]
0.10034601 -0.23374909 0.015130169 0.088989146 -0.53124124 0.11577878 -0.14062898 0.02182527
0.042909816 -0.18269597 0.06578029 -0.2372084 0.075559095 -0.03876315 -0.20047976 -0.1146931
0.01757982 -0.105465025 0.24914561 0.10903178 -0.30129784 -0.381708 -0.09592467 -0.1158442
-0.21639487 0.12146231 0.14486529 0.16496499 -0.67355615 0.05559184 0.07136449 0.047666855
0.2757612 -0.1635098 -0.84539825 -0.31593126 0.33901894 -0.28077596 0.06420009 -0.38352308
0.384299 -0.45433405 0.15339905 -0.08305685 -0.49772188 -0.03286099 -0.5076461 0.12146829
-0.04074735 -0.18660271 -0.65127933 -0.1628901 0.1710451 -0.31601688 0.23501347 0.3638202
-0.031923804 -0.568816 0.056933735 0.15053199 -0.75079995 0.08426778 0.17226051 0.23837115
-0.05638637 0.07832847 -0.120514646 -0.052939236 -0.24058253 -0.054412935 0.24277748 -0.24720986
0.12854366 -0.022728166 0.0059768297 0.015743898 0.118918166 0.2078261 -0.9166219 0.122887574
-0.033829834 -0.28607744 0.07907425 -0.18933354 0.09827935 -0.0058157775 -0.2683582 0.08764843
-0.3486125 0.037751473 0.031189436 -0.18906935 -0.013488884 0.10125431 -0.46904388 -0.5682128
0.13430634 0.07228874 -0.28888127 -0.30759558 0.23689249 -0.48795593 0.13674325 0.1892209
-0.4187977 -0.778526 0.16654278 0.08012449 0.14265774 -0.057702594 0.042069186 0.044499747
0.15455337 -0.30321208 -0.0029698468 0.26584834 0.14919452 0.15369946 -0.4752163 -0.38519123
-0.16691947 -0.07070646 0.3020711 -0.59015256 0.15263525 0.037725374 -0.54095936 -0.16181599
0.18734485 0.37014303 -0.49536818 -0.09276317 0.19762497 0.2905591 0.12743798 0.14802037
0.17837241 0.13680935 -0.18927462 -0.456769 -0.4660487 -0.28170428 -0.59120417 0.12261517
0.09330603 -0.08813251 0.057217177 0.019809159 0.09550285 0.13505842 -0.18278469 0.24233651
-0.002160537 -0.39774123 -0.67921925 -0.42199603 -0.5735393 -0.5311834 0.14086574 0.075477295
-0.7593682 0.026243838 -0.087014265 0.220105 -0.062045887 -0.05682199 0.060038522 -0.074396074
-0.3715443 -0.49513167 -0.25050026 0.052647512 0.056443475 0.084368154 0.29204637 0.29925713
0.18202677 0.09461171 -0.5340579 0.16633311 0.07479311 -0.16472906 -0.2988021 0.01642505
-0.517402 0.5107837 -0.46724898 -0.46748593 -0.30037123 -0.6109108 0.100157656 0.008826278
-0.112938695 0.031650253 0.15775552 -0.21336648 -0.03575713 0.12678854 0.25863776 -0.34684446
-0.029663859 -0.4825411 0.13846442 -0.22855616 0.07616398 -0.03344366 0.025071807 -0.050302226
0.07462237 0.17046517 0.071092 0.09995598 -0.32316226 0.21027364 0.3159974 0.18390232
0.07245702 -0.07707603 -0.37521055 0.09235174 -0.6970472 0.27800864 -0.22882795 -0.60777885
0.23779558 -0.061665703 -0.22567339 0.15874016 0.25480357 0.2682483 -0.19460464 -0.3301225
0.2526956 -0.08012572 -0.459159 -0.15380943 -0.23922808 0.16381598 0.16548072 -0.64936954
-0.56409717 0.2092276 0.24279158 -0.18857014 -0.308401 -0.1534659 -0.20223887 -0.43588847
-0.48991567 0.30166695 0.31491795 -0.15209138 -0.06590435 0.158869 0.15089764 -0.21914645
00000000: 3582 cd3d ec5b 6fbe 87e4 773c f13f b63d
00000010: 6dff 07bf 6d1d ed3d 0b01 10be e9ca b23c
00000020: 34c2 2f3d a714 3bbe d1b7 863d c2e6 72be
00000030: babe 9a3d 1cc6 1ebd 914a 4dbe 37e4 eabd
00000040: 8e03 903c 0cfe d7bd 0720 7f3e 0e4c df3d
00000050: b643 9abe 3b6f c3be 2774 c4bd b93f edbd
00000060: 9e96 5dbe 3bc1 f83d 9157 143e 95ec 283e
00000070: 2d6e 2cbf 45b4 633d 8c27 923d 523e 433d
00000080: 9230 8d3e 1d6f 27be 056c 58bf bec1 a1be
00000090: e493 ad3e dec1 8fbe 567b 833d 235d c4be
000000a0: d7c2 c43e 799e e8be a414 1d3e b619 aabd
000000b0: 67d5 febe 3f99 06bd 18f5 01bf 5ec4 f83d
000000c0: b1e6 26bd c814 3fbe 3eba 26bf aacc 26be
000000d0: 7226 2f3e f7cc a1be 5fa7 703e a446 ba3e
000000e0: 89c2 02bd ed9d 11bf 5933 693d 0f25 1a3e
000000f0: 6d34 40bf 9694 ac3d 0f65 303e 9117 743e
00000100: 65f5 66bd ad6a a03d 62d0 f6bd d0d6 58bd
00000110: 445b 76be 19e0 5ebd a99a 783e 9524 7dbe
00000120: f3a0 033e 6b30 babc 48d9 c33b 59f9 803c
00000130: 5e8b f33d 5dd0 543e bca7 6abf 7bac fb3d
00000140: 2791 0abd be78 92be aef1 a13d a7e0 41be
00000150: af46 c93d 4792 bebb 3f66 89be 0581 b33d
00000160: 567d b2be 4aa1 1a3d fd80 ff3c 659b 41be
00000170: 7b00 5dbc 6b5e cf3d 8526 f0be 6576 11bf
00000180: 9a87 093e 1e0c 943d 3fe8 93be 2b7d 9dbe
00000190: f293 723e 5cd5 f9be 6c06 0c3e 20c3 413e
000001a0: a76c d6be 7b4d 47bf 318a 2a3e 4f18 a43d
000001b0: df14 123e 8e59 6cbd bd50 2c3d 5e45 363d
000001c0: 3d43 1e3e 9d3e 9bbe c3a1 42bb 461d 883e
000001d0: 73c6 183e 6463 1d3e 8d4f f3be c937 c5be
000001e0: f0ec 2abe 8cce 90bd 10a9 9a3e 3d14 17bf
000001f0: 6a4c 1c3e ec85 1a3d 507c 0abf 17b3 25be
00000200: 54d7 3f3e 6383 bd3e e6a0 fdbe 9efa bdbd
00000210: 335e 4a3e 2ac4 943e 1a7f 023e a792 173e
00000220: 42a7 363e c017 0c3e 35d1 41be a0dd e9be
00000230: ef9d eebe 8b3b 90be 2859 17bf aa1d fb3d
00000240: 3b17 bf3d d17e b4bd 8f5c 6a3d d146 a23c
00000250: 0097 c33d c14c 0a3e e92b 3bbe 1027 783e
00000260: cc97 0dbb bda4 cbbe 50e1 2dbf dd0f d8be
00000270: 79d3 12bf a3fb 07bf 1c3f 103e d793 9a3d
00000280: f465 42bf 51fd d63c 8934 b2bd 3563 613e
00000290: d423 7ebd 2dbe 68bd f4ea 753d f85c 98bd
000002a0: 0e3b bebe e681 fdbe 9241 80be eba4 573d
000002b0: 4631 673d 36c9 ac3d 1a87 953e 3b38 993e
000002c0: 3a65 3a3e c9c3 c13d 05b8 08bf 3a53 2a3e
000002d0: 212d 993d bcae 28be 97fc 98be d48d 863c
000002e0: 7574 04bf b8c2 023f 423b efbe 515a efbe
000002f0: 42ca 99be a664 1cbf 751f cd3d 189c 103c
00000300: 674c e7bd b2a3 013d aa8a 213e be7c 5abe
00000310: 1176 12bd dbd4 013e 2b6c 843e 9995 b1be
00000320: 9f01 f3bc a10f f7be 9ec9 0d3e a00a 6abe
00000330: dcfb 9b3d 38fc 08bd 6463 cd3c b509 4ebd
00000340: 9dd3 983d 6c8e 2e3e af98 913d b9b5 cc3d
00000350: 8675 a5be f951 573e 69ca a13e e450 3c3e
00000360: 5964 943d 0ada 9dbd 991b c0be e922 bd3d
00000370: af71 32bf 2657 8e3e e051 6abe 6597 1bbf
00000380: af80 733e 2d95 7cbd ed16 67be c88c 223e
00000390: 9d75 823e d757 893e 7046 47be d105 a9be
000003a0: 5161 813e f418 a4bd e316 ebbe 3880 1dbe
000003b0: 35f8 74be 60bf 273e c773 293e 153d 26bf
000003c0: ac68 10bf c33f 563e 5b9e 783e 8818 41be
000003d0: bce6 9dbe 2a26 1dbe b517 4fbe c62c dfbe
000003e0: 3ad6 fabe 1774 9a3e ed3c a13e d8bd 1bbe
000003f0: dcf8 86bd 8eae 223e e984 1a3e ed67 60be

bias f4 [16]
0.19020772 0.17097595 -0.017970543 -0.010310398 0.25116596 0.30301604 -0.35010466 0.32128286
0.14596342 -0.23643416 0.050711565 -0.07069216 0.32533592 -0.3349217 0.30374715 0.34708259
00000000: d0c5 423e 5214 2f3e f636 93bc f2ec 28bc
00000010: d398 803e eb24 9b3e eb40 b3be 307f a43e
00000020: 6f77 153e cc1b 72be eeb6 4f3d 0dc7 90bd
00000030: 6e92 a63e db7a abbe bf84 9b3e cfb4 b13e

weight f4 [32, 16, 4, 4]
0.045863576 0.11456244 0.013795046 -0.0035834229 -0.036919873 -0.016430987 -0.02458916 0.057339244
0.017958365 0.014582712 0.049686544 -0.062764905 0.013033775 -0.187402 -0.1284001 0.038431894
0.008331301 0.104285344 -0.019427892 -0.04521522 0.05055989 0.07309559 0.02089754 -0.0967664
-0.053968236 -0.114731945 -0.22833648 -0.04373381 -0.067520455 -0.18690068 0.06295959 -0.010804924
0.117865555 -0.057803668 0.09494846 0.064913034 -0.10118634 0.11484517 0.036774613 -0.06304076
-0.048964962 -0.22674803 0.06292296 0.0042865067 0.071915574 -0.022209411 -0.187229 0.10680759
-0.0035670034 0.06475518 -0.13124847 -0.03796955 0.081539 0.074699014 -0.06424828 0.039179865
0.0149969505 -0.153273 0.09240808 -0.14163493 0.09759471 -0.1523019 0.033440974 0.06044037
-0.012433398 -0.035652716 -0.0043309107 -0.01815942 0.026059663 0.04208358 -0.0046571316 0.089827985
0.005833166 -0.12571886 -0.18473414 0.011265728 -0.116522096 -0.079993315 0.024623754 0.033873666
0.023771353 -0.027919106 0.061342474 0.003256809 0.058771368 0.07519787 0.066801324 -0.015039672
0.035948638 -0.05339711 0.042248875 -0.013742526 -0.017886583 -0.08972298 -0.1013112 -0.003279791
-0.013747307 0.022217158 -0.043851957 0.028122518 0.03851865 0.06656921 -0.026838588 0.049337912
-0.006106505 -0.13578455 0.015177763 -0.04339955 -0.035616823 -0.24773356 -0.01350774 0.050593074
-0.0445913 0.10582988 0.08189284 -0.07570562 -0.020890256 -0.03302103 -0.07853263 0.10008691
0.04160796 -0.06977945 0.041541386 -0.07382803 0.024937121 -0.16545303 0.0064212554 0.043035045
0.022336839 0.045608908 0.080679886 -0.1636991 -0.07278394 -0.1133352 -0.01851768 -0.086642645
0.00090528576 -0.101428315 -0.025790522 0.12006892 0.07169732 -0.22470832 -0.123870194 0.03874863
-0.019804608 0.10009409 0.029713523 0.024472933 -0.06854573 0.14839527 -0.021482335 -0.055537816
0.010006656 0.07311247 0.008468847 0.011947748 0.07149331 -0.18888098 -0.10599744 0.0035816093
0.16275364 0.040629443 0.028774694 0.05700385 0.07170244 0.052392468 0.0459668 0.07171079
-0.071578115 -0.06894334 -0.11104876 0.13930775 -0.05588805 -0.03319768 0.00035531542 0.04490317
0.11277628 -0.0984541 0.10333548 0.06749185 0.045814026 0.05587635 0.16747175 -0.0019037274
-0.0036379613 -0.13433173 -0.042759657 0.032626 0.1606663 -0.121386565 0.0733193 0.012744016
0.015408587 0.17326814 -0.11624665 -0.07607645 0.007893441 0.033337697 0.02323564 0.0021459148
0.04486657 -0.07892384 0.056849845 0.08405421 -0.14425829 -0.097688474 -0.0068040285 -0.060179237
0.04250458 -0.02094765 0.05391615 0.036635324 0.08539626 -0.007947558 -0.051924374 0.04853071
0.08809547 0.014098311 -0.049550243 0.03400084 0.057690073 -0.22722773 -0.06725149 0.03932617
0.16131815 0.0032847705 -0.030782808 -0.0038454924 -0.047448922 -0.069204964 -0.028602798 0.023379214
0.076156445 -0.1821157 -0.07356516 -0.11417778 0.06987322 -0.065149136 -0.008567278 0.031309247
-0.032909114 0.18803057 -0.047052365 -0.0006571212 -0.06756081 -0.078844465 -0.1447661 0.076619215
-0.084149525 -0.16940612 -0.0056090765 -0.17202105 0.009059399 -0.11804994 0.07278377 -0.0041520693
00000000: 72db 3b3d b69f ea3d 9e04 623c dcd7 6abb
00000010: 4b39 17bd 479a 86bc 356f c9bc 8edc 6a3d
00000020: 6c1d 933c 54ec 6e3c 1e84 4b3d e38a 80bd
00000030: 9d8b 553c 4fe6 3fbe 517b 03be c36a 1d3d
00000040: 0280 083c 8e93 d53d 3e27 9fbc 9833 39bd
00000050: e317 4f3d 24b3 953d 5131 ab3c 762d c6bd
00000060: cc0d 5dbd 95f8 eabd 0ad1 69be 3922 33bd
00000070: 2a48 8abd e462 3fbe f5f0 803d 2307 31bc
00000080: 7f63 f13d 8ac3 6cbd 5774 c23d 20f1 843d
00000090: c93a cfbd f233 eb3d faa0 163d 841b 81bd
000000a0: 7c8f 48bd a330 68be c1dd 803d d375 8c3b
000000b0: 7948 933d 83f0 b5bc f5b8 3fbe f0bd da3d
000000c0: 63c4 69bb 5d9e 843d 0066 06be f585 1bbd
000000d0: ebfd a63d ccfb 983d 9a94 83bd 117b 203d
000000e0: c5b5 753c 99f3 1cbe 7340 bd3d bf08 11be
000000f0: bcdf c73d 07f5 1bbe 67f9 083d 5290 773d
00000100: 73b5 4bbc 9508 12bd 50ea 8dbb 10c3 94bc
00000110: 137b d53c d55f 2c3d da9a 98bb bcf7 b73d
00000120: 2524 bf3b 72bc 00be f22a 3dbe e393 383c
00000130: 23a3 eebd 89d3 a3bd c1b7 c93c 1dbf 0a3d
00000140: 24bc c23c 9cb6 e4bc 3f42 7b3d 3070 553b
00000150: 3fba 703d 5701 9a3d 22cf 883d f568 76bc
00000160: e13e 133d eeb6 5abd 280d 2d3d 5528 61bc
00000170: e286 92bc afc0 b7bd 3f7c cfbd c3f1 56bb
00000180: 623c 61bc c200 b63c 1c9e 33bd 3261 e63c
00000190: bbc5 1d3d 7055 883d 99dc dbbc 8d16 4a3d
000001a0: 1419 c8bb 1b0b 0bbe 27ac 783c bac3 31bd
000001b0: f2e2 11bd dead 7dbe 914f 5dbc af3a 4f3d
000001c0: 5ea5 36bd 56bd d83d 6fb7 a73d 8c0b 9bbd
000001d0: 0b22 abbc 0f41 07bd b7d5 a0bd 5efa cc3d
000001e0: 1c6d 2a3d 87e8 8ebd 4d27 2a3d 2633 97bd
000001f0: ef48 cc3c 856c 29be 6569 d23b 8445 303d
00000200: bffb b63c 68d0 3a3d 7f3b a53d bda0 27be
00000210: bf0f 95bd 491c e8bd 64b2 97bc b371 b1bd
00000220: b350 6d3a a6b9 cfbd a546 d3bc b2e6 f53d
00000230: 0bd6 923d f019 66be a8af fdbd e2b6 1e3d
00000240: 463d a2bc 21fe cc3d c669 f33c 767b c83c
00000250: b461 8cbd eef4 173e b9fb afbc 9f7b 63bd
00000260: f5f2 233c febb 953d ebc0 0a3c 7dc0 433c
00000270: 166b 923d 046a 41be 3015 d9bd 6fb9 6a3b
00000280: e4a8 263e 0f6b 263d e8b8 eb3c de7c 693d
00000290: bbd8 923d 7c99 563d af47 3c3d 1bdd 923d
000002a0: 8c97 92bd 2a32 8dbd 886d e3bd b1a6 0e3e
000002b0: deea 64bd 4afa 07bd a149 ba39 63ec 373d
000002c0: 40f7 e63d 4ea2 c9bd 8da1 d33d 2b39 8a3d
000002d0: 7da7 3b3d 99de 643d b77d 2b3e 7e86 f9ba
000002e0: dd6a 6ebb 428e 09be c024 2fbd d7a2 053d
000002f0: b585 243e 8599 f8bd 6e28 963d 47cc 503c
00000300: 4c74 7c3c 346d 313e b912 eebd f8cd 9bbd
00000310: 7e53 013c 1c8d 083d ab58 be3c 7aa2 0c3b
00000320: 02c6 373d d2a2 a1bd 62db 683d 9d24 ac3d
00000330: 72b8 13be e510 c8bd 54f4 debb 817e 76bd
00000340: 4819 2e3d 689a abbc 2ed7 5c3d ec0e 163d
00000350: 3ce4 ae3d 7936 02bc a7ae 54bd 23c8 463d
00000360: 666b b43d 9afc 663c 32f5 4abd 7744 0b3d
00000370: 6d4c 6c3d 63ae 68be 26bb 89bd 7a14 213d
00000380: 9630 253e 4e45 573b 3a2c fcbc a804 7cbb
00000390: cd59 42bd 55bb 8dbd 6a50 eabc c485 bf3c
000003a0: e9f7 9b3d 8a7c 3abe 55a9 96bd 0ad6 e9bd
000003b0: b119 8f3d e96c 85bd c55d 0cbc 203e 003d
000003c0: b5cb 06bd 168b 403e fbb9 40bd a842 2cba
000003d0: 525d 8abd 3579 a1bd 913d 14be 89ea 9c3d
000003e0: 9656 acbd cc78 2dbe 58cc b7bb 4926 30be
000003f0: e06d 143c 2bc4 f1bd a80f 953d 150e 88bb

bias f4 [32]
-0.05171197 0.090084344 -0.01768039 0.019713653 -0.05168884 0.14551994 -0.06191523 0.013683061
-0.016672745 0.0014127007 -0.13689972 -0.0987953 0.047229543 -0.11957666 -0.011014116 -0.07837824
-0.020879222 -0.08444265 -0.0059993686 -0.042125273 -0.105708055 0.035430193 -0.11832301 -0.09962584
-0.06693629 -0.042590335 0.017663093 -0.07458648 -0.029342044 -0.094823614 -0.021665385 -0.10995404
00000000: eecf 53bd 247e b83d 77d6 90bc 877e a13c
00000010: adb7 53bd 2e03 153e d39a 7dbd eb2e 603c
00000020: 4895 88bc 5f2a b93a 712f 0cbe 3155 cabd
00000030: c473 413d 9ce4 f4bd 8d74 34bc c584 a0bd
00000040: e70a abbc 45f0 acbd 5a96 c4bb 8d8b 2cbd
00000050: 777d d8bd 401f 113d 5653 f2bd a208 ccbd
00000060: e515 89bd 3473 2ebd 31b2 903c ccc0 98bd
00000070: ba5e f0bc e232 c2bd 9b7b b1bc 952f e1bd

weight f4 [64, 32, 4, 4]
0.020874092 -0.016294338 -0.010444703 0.016460152 0.01765926 0.061728578 -0.06841401 -0.06400596
0.03194762 -0.034214303 0.016961882 -0.015018607 -0.114113554 0.033765104 -0.15028577 0.0023571902
0.07567395 0.090129465 -0.1997053 -0.029131133 -0.014150989 0.0600483 0.09835207 -0.006754334
-0.057194263 -0.067583136 -0.11707226 0.03310832 0.0007334068 0.10910605 0.009350796 0.059775256
0.023076821 -0.039950557 -0.0014986122 0.017008323 -0.042189706 -0.026366977 0.010010235 0.046113756
0.019252868 -0.01634892 0.011316874 -0.033785142 -0.006138807 9.6393005e-06 0.04224549 -0.0030019865
-0.019774456 0.003224902 -0.011617177 -0.023572063 0.107155256 0.011196323 -0.023085384 0.023474256
0.02463654 0.0413004 0.02874375 0.04727531 -0.074070044 -0.054539256 0.07655944 -0.031713087
-0.025698477 0.016572408 -0.01248578 0.04241989 0.087605596 -0.043265924 -0.105422646 0.12485737
-0.020231826 -0.0864491 -0.036324453 0.013244038 0.03746815 0.033242133 -0.08697121 0.0044664703
-0.04741119 -0.04776029 -0.0074302503 -0.10255325 0.06093597 0.08629055 -0.031100957 -0.10816024
-0.22601391 -0.025413923 -0.10748089 0.22369577 0.101989396 0.05456126 -0.060325943 -0.01283737
-0.029909614 0.043302957 -0.0025858143 0.016132837 -0.024566066 0.039144166 0.008094113 -0.03712039
0.026293837 0.014562223 0.021472938 -0.0040894737 0.0078568 -0.029922456 0.035765886 0.03199042
0.043905307 -0.041196957 -0.042322475 -0.038900707 0.121535264 -0.1221386 -0.036923997 -0.0031708146
-0.17507535 -0.04864291 0.09199213 -0.0026444264 0.08537885 -0.15422806 -0.06290379 0.036129523
0.027055593 0.018797912 -0.028493851 0.044458225 0.078271456 0.05648417 -0.01268246 0.0028874972
-0.047971066 -0.03338854 0.0072693033 -0.00525091 -0.08485637 -0.07054366 0.024744933 -0.018918594
-0.05094003 0.010663076 0.11446393 -0.07750109 0.016622318 -0.09345981 -0.025959592 0.14366025
0.025170729 -0.004437235 -0.02158645 -0.04940747 0.009662062 0.08600948 -0.06098453 0.11286033
-0.035894565 -0.016872618 -0.012003505 0.08556573 0.06166968 0.03656947 -0.029192267 0.06344214
-0.033022184 0.021884995 -0.07021758 -0.009198067 -0.024050849 -0.04076766 0.022824198 0.04111331
-0.005623916 -0.0652153 -0.030744072 0.037708245 0.05569202 0.02965255 -0.03697303 -0.038229454
-0.02248712 0.02073269 0.021428537 -0.036755838 0.0022449917 -0.016367437 -0.01536422 -0.013316325
0.018088264 -0.0447717 0.021179127 0.029320806 0.026749533 0.033147626 -0.06444425 -0.056140788
-0.018695919 0.037429728 0.01211007 0.041559543 -0.031525776 -0.08723068 -0.03099951 0.014365857
0.0065018414 -0.09434918 0.2325345 0.10534741 0.11646944 -0.029036444 -0.00026187632 -0.04399566
-0.050394665 0.09623603 -0.028564628 0.00893163 0.07887848 -0.029052118 -0.08577429 -0.010966013
-0.0033647432 0.0037614175 -0.016743803 0.039064568 -0.050149646 0.038411852 -0.062831186 -0.045067806
0.0077164774 0.05260401 -0.021785961 -0.00032980784 0.0034132688 0.0068062674 0.03364184 0.009731712
-0.048067797 -0.018230934 0.02473662 0.24884163 0.08041924 0.017284932 -0.030780217 -0.04292318
-0.022176914 0.053030625 -0.07614627 -0.0876585 0.05520763 -0.00776939 -0.041575644 -0.026819704
00000000: 2500 ab3c b47b 85bc 4220 2bbc 71d7 863c
00000010: 27aa 903c 1bd7 7c3d a51c 8cbd 8f15 83bd
00000020: 82db 023d 4c24 0cbd a5f3 8a3c 9a10 76bc
00000030: 5eb4 e9bd 474d 0a3d 83e4 19be 177b 1a3b
00000040: f2fa 9a3d cc95 b83d 8c7f 4cbe 6aa4 eebc
00000050: 8dd9 67bc 35f5 753d cf6c c93d 7653 ddbb
00000060: 8844 6abd 0769 8abd 95c3 efbd 979c 073d
00000070: 1942 403a fe72 df3d 1534 193c e6d6 743d
00000080: 9a0b bd3c 32a3 23bd 156d c4ba 0a55 8b3c
00000090: 1dcf 2cbd 8fff d7bc f801 243c c7e1 3c3d
000000a0: 31b8 9d3c 2cee 85bc 696a 393c 4a62 0abd
000000b0: 0c28 c9bb 7bb8 2137 9b09 2d3d fabc 44bb
000000c0: 0afe a1bc e158 533b f955 3ebc 331a c1bc
000000d0: 3774 db3d c870 373c 8f1d bdbc 154d c03c
000000e0: 92d2 c93c 9c2a 293d 0378 eb3c c1a3 413d
000000f0: 09b2 97bd 8e64 5fbd 32cb 9c3d 95e5 01bd
00000100: 9d85 d2bc dcc2 873c 2891 4cbc 7bc0 2d3d
00000110: 906a b33d 9c37 31bd d4e7 d7bd 39b5 ff3d
00000120: 37bd a5bc 3a0c b1bd f3c8 14bd 86fd 583c
00000130: 3478 193d e728 083d f61d b2bd 785b 923b
00000140: 3c32 42bd 4ba0 43bd 7579 f3bb 7007 d2bd
00000150: ff97 793d 1ab9 b03d 6fc7 febc 1e83 ddbd
00000160: 3170 67be dc30 d0bc f11e dcbd 8110 653e
00000170: d1df d03d a17b 5f3d 5618 77bd d553 52bc
00000180: 0205 f5bc 715e 313d c476 29bb 0329 843c
00000190: c63e c9bc a255 203d 2c9d 043c 8d0b 18bd
000001a0: 2c66 d73c 6496 6e3c 04e8 af3c fe00 86bb
000001b0: cfb9 003c f01f f5bc 407f 123d 6308 033d
000001c0: 0dd6 333d 24be 28bd 555a 2dbd 5956 1fbd
000001d0: 7be7 f83d cd23 fabd 9e3d 17bd 71cd 4fbb
000001e0: f446 33be ca3d 47bd 5f66 bc3d 1d4e 2dbb
000001f0: 1bdb ae3d f6ed 1dbe b4d3 80bd 8dfc 133d
00000200: b1a3 dd3c 14fe 993c f06b e9bc d419 363d
00000210: c94c a03d f25b 673d 18ca 4fbc 2a3c 3d3b
00000220: 4f7d 44bd 6cc2 08bd 5633 ee3b d30f acbb
00000230: 2dc9 adbd 3279 90bd e3b5 ca3c 2bfb 9abc
00000240: 7ea6 50bd 2fb4 2e3c 116c ea3d e4b8 9ebd
00000250: 872b 883c db67 bfbd 36a9 d4bc ac1b 133e
00000260: d832 ce3c 3a66 91bb 11d6 b0bc 7d5f 4abd
00000270: a04d 1e3c bd25 b03d eaca 79bd 5123 e73d
00000280: 2e06 13bd 7238 8abc 59aa 44bc 163d af3d
00000290: 5999 7c3d dec9 153d 9f24 efbc f4ed 813d
000002a0: 4542 07bd 2948 b33c 3cce 8fbd 7db3 16bc
000002b0: 4906 c5bc fdfb 26bd d0f9 ba3c 6e66 283d
000002c0: d448 b8bb 998f 85bd feda fbbc f673 1a3d
000002d0: 511d 643d e8e9 f23c 0871 17bd 7d96 1cbd
000002e0: e936 b8bc 9ad7 a93c e68a af3c 4a8d 16bd
000002f0: b620 133b 0115 86bc 36ba 7bbc b72c 5abc
00000300: d72d 943c 8862 37bd d97f ad3c 3032 f03c
00000310: d621 db3c cec5 073d 59fb 83bd e2f3 65bd
00000320: 2f28 99bc ea4f 193d 5169 463c 573a 2a3d
00000330: 2c21 01bd 00a6 b2bd aff2 fdbc c55e 6b3c
00000340: 660d d53b 253a c1bd 861d 6e3e 62c0 d73d
00000350: 8887 ee3d d6dd edbc 724c 89b9 cb34 34bd
00000360: a36a 4ebd 6517 c53d 5e00 eabc f955 123c
00000370: 0a8b a13d b5fe edbc 6eaa afbd cbaa 33bc
00000380: 0683 5cbb 1d82 763b 4d2a 89bc 2b02 203d
00000390: b769 4dbd bf55 1d3d a3ad 80bd 0599 38bd
000003a0: 81da fc3b 4d77 573d 7978 b2bc 0fea acb9
000003b0: 26b1 5f3b 1c07 df3b 07cc 093d c271 1f3c
000003c0: bde2 44bd 0a59 95bc 74a4 ca3c 57d0 7e3e
000003d0: d8b2 a43d 2199 8d3c cb26 fcbc 37d0 2fbd
000003e0: 5cac b5bc a436 593d 93f2 9bbd 4d86 b3bd
000003f0: 6521 623d 5e96 febb 394b 2abd ffb4 dbbc

bias f4 [64]
0.008384269 -0.04949989 -0.06326651 -0.11847452 0.015554649 0.014903137 -0.0151304845 -0.037663773
0.0108553255 -0.12421535 0.0055168974 -0.1686387 -0.044869237 0.0045695915 0.07582716 -0.00818808
0.0023191276 -0.03824868 -0.0108602345 -0.068921424 -0.044592626 0.033933476 0.006553075 -0.049011767
0.059146956 -0.015749002 -0.06274703 -0.023010768 -0.0005793871 -0.13665476 -0.022508327 -0.013770749
-0.023335895 -0.043754328 -0.013619646 -0.0016711152 -0.0085426085 0.017466927 -0.031442787 0.038117513
-0.07452959 -0.0327422 -0.02821251 -0.0640973 -0.121546604 0.016624168 -0.023025578 0.022020271
-0.047806825 -0.011283459 -0.03959111 -0.023605717 -0.04203415 -0.04224239 0.030792972 0.026697015
-0.042421754 0.037168596 0.009246424 -0.018379781 -0.02379471 0.02597359 -0.018764563 -0.065582715
00000000: 2c5e 093c 66c0 4abd df91 81bd c5a2 f2bd
00000010: edd8 7e3c 4a2c 743c dae5 77bc 5445 1abd
00000020: 89da 313c 9e64 febd 17c7 b43b a0af 2cbe
00000030: cec8 37bd 83bc 953b 454b 9b3d 4c27 06bc
00000040: 81fc 173b a6aa 1cbd 20ef 31bc ad26 8dbd
00000050: c2a6 36bd d4fd 0a3d 2dbb d63b 90c0 48bd
00000060: 1444 723d 0d04 81bc 8481 80bd 1481 bcbc
00000070: 03e2 17ba 3aef 0bbe 6263 b8bc b59e 61bc
00000080: eb2a bfbc bd37 33bd f024 5fbc 5209 dbba
00000090: 4cf6 0bbc cd16 8f3c 27ca 00bd 1c21 1c3d
000000a0: f8a2 98bd af1c 06bd ec1d e7bc 7245 83bd
000000b0: 6ded f8bd 682f 883c 23a0 bcbc db63 b43c
000000c0: 17d1 43bd 42de 38bc 4a2a 22bd c760 c1bc
000000d0: 002c 2cbd 5b06 2dbd 8b41 fc3c b3b3 da3c
000000e0: 6fc2 2dbd 193e 183d 507e 173c 3291 96bc
000000f0: 20ed c2bc 91c6 d43c 24b8 99bc 3b50 86bd

weight f4 [256, 256]
0.038521275 0.07196406 -0.03252051 0.026524588 0.016274907 -0.024248064 -0.05301647 -0.041081447
-0.00017486612 0.018094614 -0.021849813 0.06491443 -0.008114803 0.020401647 0.034894306 -0.060479995
0.01811761 -0.040380105 -0.05790237 0.004991175 0.008494305 -0.033434734 -0.053370815 0.07002658
-0.055944193 0.007353342 -0.005524758 0.039266355 0.025319092 -0.08932815 0.07554525 -0.011529293
-0.043809704 0.02147338 0.0059471675 -0.04290435 0.044184994 -0.07628751 -0.03788546 0.016046742
0.055598546 -0.019572884 -0.045221794 0.031529576 -0.04081998 -0.05898144 -0.055396043 -0.05851249
0.06363655 0.008286975 -0.023535028 0.047158703 -0.046712417 0.09769299 -0.05364128 -0.028547334
0.025231365 -0.018051514 0.06068033 0.034433454 0.0155123845 0.016158322 0.041144464 0.03607811
0.017446602 -0.01743355 -0.02276368 0.025347026 -0.0011845286 -0.0625874 -0.018547906 -0.002667703
-0.0431414 -0.017071068 0.0026091249 0.0470229 -0.014689662 0.08990597 -0.074923836 0.049800776
0.054207485 -0.03995016 -0.032683477 -0.029106157 -0.027330916 0.005846504 0.004156137 0.0597896
0.050067868 -0.011283786 -0.05763603 -0.050414473 0.035270765 -0.056805916 0.09646292 0.009031249
-0.0074114874 0.021849563 -0.0016587854 0.029007575 0.056423903 -0.034012515 0.05634334 0.015401513
-0.0035978523 -0.08214971 -0.032839328 0.012616643 -0.0595324 -0.04716294 -0.0043148957 -0.0536734
-0.013601374 0.0128428945 -0.018480228 0.06370795 -0.04575546 -0.027952997 0.025351737 0.07922562
0.056314114 0.0154348295 -0.048551355 0.037944775 -0.04098003 -0.04327788 -0.016462723 0.060710296
0.0397257 0.021683924 0.026665827 -0.05092656 0.006280445 -0.02788716 0.008219706 0.008537181
0.022224043 -0.05837869 0.063598834 -0.04395528 0.048305646 -0.007117653 -0.095029265 -0.057499122
0.034547668 0.02079962 -0.041486707 0.024514785 -0.059151225 -0.028014876 0.006008388 -0.06567294
-0.042472374 0.10497548 0.034462646 -0.017550021 0.05289948 -0.015503857 -0.043445777 -0.00040494723
0.007314499 0.010492126 -0.018130442 0.05272587 0.024566596 -0.045056347 0.039697066 0.0121921785
-0.0060637654 0.031915814 0.048377097 0.05934942 0.002944596 0.03573127 -0.061713602 -0.01710806
-0.042189006 -0.07301934 -0.04437653 0.016872613 0.019517587 0.017312748 -0.013615148 0.03009577
0.021289797 0.020761417 -0.040616777 0.039454155 -0.025611693 -0.058400955 0.030426677 -0.050188087
0.043778583 -0.016234145 -0.01814157 0.0055004763 0.037264496 0.00848934 0.033171512 0.015590162
-0.05677172 0.029362433 -0.058319975 -0.034230035 -0.019976376 0.042742323 -0.052779563 -0.026855404
-0.0074774204 0.059126187 0.027473778 0.013955824 -0.016113097 0.03517871 0.020723343 0.021661883
-0.058933202 -0.041552685 -0.033779733 0.026858784 0.06957738 0.0030934887 0.051432982 0.013200644
-0.053836275 0.026699841 -0.0019021127 -0.06941269 -0.027550273 0.034696806 -0.02059085 0.046912476
-0.06408503 -0.046355505 0.04539016 -0.045270458 0.03534296 0.07146439 -0.019235007 -0.037267286
-0.041346338 -0.020027978 0.023521038 0.01005092 -0.07822036 -0.0077013164 -0.022553012 0.036609635
0.047590576 0.05341018 -0.01023114 0.052410565 0.046678398 -0.04795355 0.025402956 -0.046686422
00000000: 7cc8 1d3d e561 933d 3a34 05bd 184a d93c
00000010: f452 853c e0a3 c6bc cc27 59bd 0545 28bd
00000020: 445c 37b9 283b 943c 61fe b2bc dbf1 843d
00000030: f3f3 04bc 5b21 a73c 55ed 0e3d dfb9 77bd
00000040: 626b 943c 9c65 25bd 092b 6dbd 038d a33b
00000050: b32b 0b3c dcf2 08bd 5b9b 5abd 186a 8f3d
00000060: bd25 65bd 4ef4 f03b 0709 b5bb c2d5 203d
00000070: fc69 cf3c adf1 b6bd 78b7 9a3d 5ce5 3cbc
00000080: ce71 33bd f1e8 af3c 75e0 c23b 79bc 2fbd
00000090: 53fb 343d a03c 9cbd c92d 1bbd 7574 833c
000000a0: 4dbb 633d 5057 a0bc 7d3a 39bd 2825 013d
000000b0: da32 27bd 8696 71bd f6e6 62bd cbaa 6fbd
000000c0: e153 823d 18c6 073c 88cc c0bc 7c29 413d
000000d0: 8555 3fbd 4313 c83d f5b6 5bbd 19dc e9bc
000000e0: 02b2 ce3c c5e0 93bc f08b 783d 180a 0d3d
000000f0: a827 7e3c 755e 843c 1987 283d a4c6 133d
00000100: 2dec 8e3c ced0 8ebc e67a babc 91a4 cf3c
00000110: 2f42 9bba d32d 80bd c7f1 97bc a1d4 2ebb
00000120: 09b5 30bd a0d8 8bbc dafd 2a3b 169b 403d
00000130: e8ac 70bc 9f20 b83d ab71 99bd e6fb 4b3d
00000140: ab08 5e3d c7a2 23bd 1cdf 05bd 0970 eebc
00000150: 16e5 dfbc 0894 bf3b 3430 883b f1e5 743d
00000160: f713 4d3d a1df 38bc c213 6cbd 687f 4ebd
00000170: 1478 103d 52ad 68bd 5a8e c53d cef7 133c
00000180: 10dc f2bb dbfd b23c 9a6b d9ba 4ba1 ed3c
00000190: c01c 673d b550 0bbd 46c8 663d a156 7c3c
000001a0: f2c9 6bbb 1b3e a8bd 8882 06bd 09b6 4e3c
000001b0: 3fd8 73bd ed2d 41bd f863 8dbb a4d8 5bbd
000001c0: 4cd8 5ebc 016b 523c d963 97bc 5079 823d
000001d0: 146a 3bbd affd e4bc 72ae cf3c 0b41 a23d
000001e0: a1a9 663d 5ee2 7c3c c9dd 46bd fb6b 1b3d
000001f0: adda 27bd 2544 31bd d5dc 86bc 5cab 783d
00000200: 6ab7 223d 7ca2 b13c 4b72 da3c 5e98 50bd
00000210: 31cc cd3b 9d73 e4bc f2ab 063c 88df 0b3c
00000220: 320f b63c 7e1e 6fbd 1b40 823d 740a 34bd
00000230: 24dc 453d 333b e9bb b49e c2bd 3384 6bbd
00000240: db81 0d3d f763 aa3c f7ed 29bd 3bd3 c83c
00000250: 8e48 72bd 747f e5bc 03e2 c43b 897f 86bd
00000260: 83f7 2dbd 62fd d63d b428 0d3d 10c5 8fbc
00000270: 20ad 583d e403 7ebc 33f4 31bd 194f d4b9
00000280: 77ae ef3b 2be7 2b3c 4b86 94bc 15f7 573d
00000290: e33f c93c 018d 38bd 6499 223d b4c1 473c
000002a0: 8db2 c6bb 28ba 023d 1027 463d 6118 733d
000002b0: 20fa 403b f45a 123d 67c7 7cbd 3426 8cbc
000002c0: 61ce 2cbd 2a8b 95bd 2ac4 35bd 6f38 8a3c
000002d0: 59e3 9f3c 77d3 8d3c 1212 5fbc 678b f63c
000002e0: f167 ae3c d913 aa3c c75d 26bd ae9a 213d
000002f0: 9dcf d1bc d735 6fbd 5e41 f93c 0692 4dbd
00000300: 2c51 333d 78fd 84bc a19d 94bc 573d b43b
00000310: a8a2 183d df16 0b3c dade 073d e16d 7f3c
00000320: 7789 68bd 7c89 f03c ede0 6ebd cb34 0cbd
00000330: 7fa5 a3bc 9312 2f3d 622f 58bd ddff dbbc
00000340: 2605 f5bb 4d2e 723d b010 e13c f8a6 643c
00000350: 9dff 83bc 8d17 103d 00c4 a93c 4374 b13c
00000360: f163 71bd 2633 2abd 9e5c 0abd f406 dc3c
00000370: 967e 8e3d 21bc 4a3b 64ab 523d 8447 583c
00000380: 6d83 5cbd a0b9 da3c 5050 f9ba 3e28 8ebd
00000390: 1cb1 e1bc 3d1e 0e3d 24ae a8bc 4c27 403d
000003a0: 033f 83bd 45df 3dbd 08eb 393d 846d 39bd
000003b0: c8c3 103d ec5b 923d bc92 9dbc 95a5 18bd
000003c0: c75a 29bd b711 a4bc 31af c03c 9dac 243c
000003d0: ff31 a0bd 535b fcbb 18c1 b8bc fcf3 153d
000003e0: 56ee 423d a2c4 5a3d 83a0 27bc 76ac 563d
000003f0: d931 3f3d f16a 44bd dc19 d03c 433a 3fbd

bias f4 [256]
0.0633624 0.014692561 -0.03130361 0.08430877 0.084175065 0.0025129167 0.083848834 -0.0012611565
0.07968114 -0.083839394 -0.013378071 -0.03401851 0.026277205 -0.09508147 0.106813245 -0.06812944
0.061401308 0.06683996 -0.060603168 -0.04835761 -0.06499897 -0.05883225 -0.10212869 0.002276762
-0.06268727 0.0048932265 0.016224682 -0.063382655 -0.049587306 -0.069579266 -0.06646349 -0.035235867
-0.058547173 0.03042305 0.06584216 -0.010151385 -0.046011146 -0.024457747 0.095705904 -0.05333828
0.061822623 0.013047766 0.032193586 -0.11588143 0.011801756 -0.01578076 -0.012877627 -0.054958344
0.043021828 0.013175416 -0.010643012 0.041387506 0.012485837 0.07644051 -0.03879369 -0.011224209
-0.0018078776 0.029877739 -0.013793107 0.0031467264 0.050628915 0.06094672 -0.022315247 0.110178754
0.0010929457 -0.09527963 0.0084714815 0.08878165 -0.046715282 -0.049353737 0.051896904 0.06316852
0.052962236 0.073603794 0.10274772 0.005159736 -0.051096797 -0.011697176 -0.049772304 0.10495871
-0.11969163 0.032325823 -0.0015296406 0.0009197331 0.012331626 0.061990548 -0.018979367 0.014011973
0.022022072 -0.05029977 0.08859765 0.03134454 -0.015698439 0.0013455041 -0.010048601 0.014434813
0.046409868 0.015768493 0.034969993 -0.0691785 -0.06031295 0.09145091 0.022271572 -0.05550019
0.009808711 -0.04821845 -0.0028714393 -0.07203226 -0.00024788873 -0.032463893 -0.04847884 0.040269718
0.033283588 -0.014708283 -0.09814478 0.05125115 -0.0019440533 -0.092520915 0.06663782 -0.0073977374
0.013188757 0.042481087 0.06473676 -0.019351603 -0.023950951 0.04330821 0.0006720062 0.0044794036
0.029611846 -0.08449954 0.062073957 -0.068870455 0.05679212 -0.0052911043 -0.110305384 -0.10330349
0.08861322 0.019392718 -0.008414362 -0.061909623 0.025166536 0.021777479 -0.102423236 0.049275868
0.026174089 -0.100923136 0.0109044975 0.04694202 0.007337549 0.032787345 -0.051535103 -0.049378872
-0.0896689 -0.06870051 0.056251038 -0.012077184 -0.005804767 -0.09056777 -0.01686241 -0.017123915
-0.01735784 -0.03533594 0.05776889 0.0034172859 -0.024764502 0.047482867 0.04760399 -0.06854351
-0.11377789 0.05854517 0.019238207 0.055868465 -0.003718587 0.040215183 -0.008930061 0.045695767
-0.01132977 0.029454973 -0.032264076 -0.056337524 -0.032355875 -0.043990463 0.03488963 0.122393474
0.01792502 0.049576357 0.034211017 -0.06955991 0.044920992 0.12288994 0.08607238 0.05617698
-0.0062758042 -0.026306104 -0.02823272 0.0133822225 0.10803626 -0.02058158 -0.051275864 0.049912583
0.008437239 0.004700368 -0.06920995 -0.08057241 0.06489137 -0.030079836 -0.01949156 -0.019139832
-0.0004241886 -0.08637107 0.07778164 0.09737774 0.023985302 -0.045140415 0.057860564 -0.013592513
-0.07759476 0.0036121414 -0.017756585 0.051031 0.037923582 0.03149718 0.007231556 0.06258687
-0.026890608 0.023949219 -0.034541115 -0.080019556 0.045697823 -0.06635244 -0.015111335 -0.04605991
-0.09679757 -0.019959651 0.02223464 0.028755508 0.060079377 0.002772567 0.02911601 0.00021672963
0.033048093 0.07212891 -0.00214305 -0.0035843947 -0.015567928 -0.00957402 0.020314556 -0.093357265
0.025863798 0.035091594 0.04243533 -0.044474464 -0.08990833 -0.028726995 0.033597354 -0.020501334
00000000: 25c4 813d 11b9 703c 3738 00bd 14aa ac3d
00000010: fa63 ac3d bfaf 243b f0b8 ab3d 644d a5ba
00000020: de2f a33d fdb3 abbd b22f 5bbc fe56 0bbd
00000030: 4b43 d73c 13ba c2bd e7c0 da3d 7387 8bbd
00000040: f07f 7b3d 64e3 883d 073b 78bd a112 46bd
00000050: 2e1e 85bd 16fa 70bd d928 d1bd ba35 153b
00000060: 2f62 80bd 5c57 a03b a0e9 843c c4ce 81bd
00000070: 0f1c 4bbd 937f 8ebd 031e 88bd 7c53 10bd
00000080: 29cf 6fbd c339 f93c 41d8 863d ff51 26bc
00000090: 2f76 3cbd 9d5b c8bc 7501 c43d 3e79 5abd
000000a0: b839 7d3d 4cc6 553c 6cdd 033d 3e53 edbd
000000b0: 275c 413c a746 81bc affc 52bc 001c 61bd
000000c0: a837 303d b3dd 573c 0760 2ebc f285 293d
000000d0: 6591 4c3c d88c 9c3d 22e6 1ebd bfe5 37bc
000000e0: 4ef6 ecba 29c2 f43c 7cfc 61bc 4f39 4e3b
000000f0: 4460 4f3d 45a3 793d 77ce b6bc 66a5 e13d
00000100: 2c41 8f3a f721 c3bd f8cb 0a3c 27d3 b53d
00000110: 8658 3fbd 2527 4abd d991 543d 7f5e 813d
00000120: eeee 583d 96bd 963d 666d d23d 0113 a93b
00000130: e04a 51bd 83a5 3fbc 0bde 4bbd 98f4 d63d
00000140: e320 f5bd 1568 043d 397e c8ba 3e1a 713a
00000150: 970a 4a3c cde9 7d3d 9e7a 9bbc 7992 653c
00000160: a267 b43c 2207 4ebd af72 b53d 2263 003d
00000170: 039a 80bc a05b b03a e3a2 24bc fe7f 6c3c
00000180: 4618 3e3d ed2c 813c b23c 0f3d 75ad 8dbd
00000190: b60a 77bd 9d4a bb3d df72 b63c 2b54 63bd
000001a0: b7b4 203c b680 45bd c22e 3cbb a685 93bd
000001b0: 10f7 81b9 dcf8 04bd c091 46bd dcf1 243d
000001c0: 5f54 083d 03fb 70bc 2100 c9bd baec 513d
000001d0: 9bcf feba 9b7b bdbd 6979 883d b868 f2bb
000001e0: a815 583c a600 2e3d b594 843d 4187 9ebc
000001f0: c934 c4bc f363 313d 9329 303a f6c7 923b
00000200: 8b94 f23c 180e adbd 4341 7e3d f40b 8dbd
00000210: db9e 683d 0061 adbb cae7 e1bd c890 d3bd
00000220: d97a b53d 7add 9e3c 64dc 09bc f294 7dbd
00000230: 0d2a ce3c af66 b23c 46c3 d1bd 7ed5 493d
00000240: 0b6b d63c cab0 cebd c7a8 323c 4746 403d
00000250: d26f f03b 064c 063d 7916 53bd 8041 4abd
00000260: 54a4 b7bd dab2 8cbd 7d67 663d 62df 45bc
00000270: ea35 bebb 987b b9bd 0923 8abc 7447 8cbc
00000280: 0732 8ebc 6bbc 10bd 129f 6c3d 8bf4 5f3b
00000290: edde cabc 657d 423d 67fc 423d 8a60 8cbd
000002a0: 6204 e9bd 0fcd 6f3d 7299 9d3c 55d6 643d
000002b0: 8ab3 73bb adb8 243d 644f 12bc 7c2b 3b3d
000002c0: 80a0 39bc 8e4b f13c 5627 04bd 2dc2 66bd
000002d0: 9887 04bd 582f 34bd 6ee8 0e3d 6ea9 fa3d
000002e0: 7ed7 923c 9410 4b3d da20 0c3d 6d75 8ebd
000002f0: 13ff 373d b9ad fb3d b746 b03d d519 663d
00000300: 43a5 cdbb e67f d7bc 4e48 e7bc 1c41 5b3c
00000310: 1d42 dd3d b49a a8bc a406 52bd 2371 4c3d
00000320: 583c 0a3c 8b05 9a3b f2bd 8dbd 2603 a5bd
00000330: c4e5 843d fd69 f6bc c4ac 9fbc 23cb 9cbc
00000340: a165 deb9 51e3 b0bd fb4b 9f3d fb6d c73d
00000350: d37c c43c 28e5 38bd 33ff 6c3d 22b3 5ebc
00000360: 00ea 9ebd adb9 6c3b 4276 91bc e205 513d
00000370: c255 1b3d 3003 013d b0f6 ec3b 8b2d 803d
00000380: b149 dcbc 2731 c43c fc7a 0dbd 4be1 a3bd
00000390: a42d 3b3d cae3 87bd 8895 77bc 51a9 3cbd
000003a0: ce3d c6bd 6c82 a3bc 6b25 b63c ac90 eb3c
000003b0: cb15 763d f5b3 353b b384 ee3c eb41 6339
000003c0: 705d 073d 52b8 933d 6a72 0cbb 2ae8 6abb
000003d0: 9f10 7fbc 5adc 1cbc b66a a63c 1832 bfbd
000003e0: 51e0 d33c 34bc 0f3d abd0 2d3d db2a 36bd
000003f0: dc21 b8bd e054 ebbc 619d 093d 6af2 a7bc

weight f4 [128, 256]
0.010169226 0.0013883155 0.060824547 0.008208172 -0.038336486 -0.022235492 -0.029790116 0.02839812
-0.007096526 -0.023455663 0.009877711 -0.008975747 -0.027190672 0.041401953 -0.012472927 -0.040544014
-0.09334737 0.024198776 0.0014810826 0.06188021 -0.03343279 0.042691585 0.07635946 0.02067087
0.026855987 0.057174653 -0.006919558 -0.005662509 -0.02530081 0.08258109 0.04900188 0.023779273
0.06884902 -0.008188757 -0.009545219 0.04791171 -0.02223298 -0.027390622 -0.031332973 0.027296884
-0.015663534 -0.0023319284 0.04087919 0.03756089 0.04057301 -0.06518776 -0.03760786 -0.006506748
-0.0039509595 0.031681832 0.00012501825 -0.0111237075 -0.002703456 0.01015714 0.04857725 -0.052421637
-0.02959642 0.015153105 0.010233356 0.035078947 0.05175185 0.057063323 -0.05899843 -0.06929246
0.07279123 0.074513 0.029362058 -0.021852678 -0.02044351 -0.030835452 0.048304703 -0.043050937
-0.059203617 0.004470882 -0.0022304265 -0.017743312 0.060315628 -0.003424919 -0.06667302 -0.025205527
0.06494865 0.0013614377 0.03262695 0.01100747 -0.030414872 -0.040854122 -0.021619868 -0.056932695
-0.04600104 0.04249562 -0.047899205 -0.02608482 0.06556587 -0.029005678 0.034186024 0.03921603
0.004188342 0.02989844 0.010138187 -0.02448198 -0.01821756 0.030467028 0.053251386 0.05785912
-0.032868177 0.04191358 -0.038343064 0.043163788 -0.053373225 0.027954469 0.03558877 0.03230743
-0.02754539 0.005555346 -0.0038933542 0.011865682 -0.054026563 0.025088537 -0.06592084 -0.04536006
-0.042306423 0.056891337 0.001968967 -0.040894132 0.035417274 0.019289747 0.022790456 0.040325418
-0.00695702 -0.01681635 0.007563168 -0.0015922873 -0.025745222 0.050498176 0.014707225 0.007412263
0.008706299 -0.003295625 -0.058277123 -0.016111301 0.049872182 0.061166354 0.017899457 0.04439742
0.010609113 -0.03688732 0.010771137 -0.0034285996 -0.014832771 -0.024694856 0.015076277 0.0805987
-0.07253066 -0.0464794 -0.03324633 -0.01295154 -0.028316926 -0.020158121 0.040975418 -0.033201683
-0.014873765 0.05276114 0.05075057 -0.03584005 0.033090048 0.06418035 -0.026772434 0.0015603587
-0.0030599274 0.043755036 -0.0030171806 0.05262979 0.03754504 0.00043852703 0.029766485 0.047021773
0.0042459224 -0.018081458 0.010226236 0.006030858 0.0655756 0.018843982 0.054160856 0.03959984
0.02065817 -0.06723033 -0.026233831 -0.02836425 -0.03897225 -0.043636 -0.07320827 0.023832155
-0.03054851 0.02261904 -0.03572107 0.031007629 -0.048278004 0.03193384 0.038785193 -0.016766747
-0.013292021 0.012219023 0.03233327 0.029099308 0.015570877 -0.009668482 0.019332936 -0.02294342
0.03607464 0.01985041 0.048509028 0.008317597 -0.024405632 -0.008527722 0.0017568914 0.02795805
-0.033039816 -0.011689302 -0.043235246 -0.061099056 0.006592456 -0.028041292 -0.046514932 0.030460306
0.064224675 0.021849357 -0.054943297 0.047795687 0.0038237108 -0.038630307 -0.047593635 0.041274812
-0.023738965 0.06523453 -0.012617689 -0.050257076 0.06310668 0.06232158 -0.058972754 -0.027530702
-0.003308843 0.030653276 0.06745577 -0.07354718 0.032717228 -0.00014286365 0.06324694 0.038960118
0.024197374 0.055332974 0.01328789 0.046376053 0.055374514 -0.025202723 -0.04129705 0.054425918
00000000: d39c 263c 23f8 b53a 2923 793d 927b 063c
00000010: b806 1dbd 3527 b6bc 670a f4bc 2da3 e83c
00000020: fa89 e8bb 1726 c0bc 1fd6 213c 030f 13bc
00000030: f9be debc 1895 293d 3f5b 4cbc 7b11 26bd
00000040: e82c bfbd 833c c63c e320 c23a 1a76 7d3d
00000050: d2f0 08bd 5fdd 2e3d 5962 9c3d f555 a93c
00000060: 1601 dc3c f82f 6a3d 76bd e2bb 918c b9bb
00000070: a543 cfbc 4620 a93d 32b6 483d c0cc c23c
00000080: b700 8d3d 232a 06bc 8d63 1cbc 123f 443d
00000090: f021 b6bc 4c62 e0bc 0157 00bd b79d df3c
000000a0: d050 80bc 44d3 18bb f070 273d 73d9 193d
000000b0: e22f 263d 2981 85bd b30a 1abd 8f36 d5bb
000000c0: 0d77 81bb cfc4 013d 5517 0339 3640 36bc
000000d0: 772c 31bb 226a 263c f0f8 463d 12b8 56bd
000000e0: 3174 f2bc bb44 783c cea9 273c f1ae 0f3d
000000f0: bff9 533d 3bbb 693d 56a8 71bd 35e9 8dbd
00000100: 9213 953d 469a 983d b388 f03c 6304 b3bc
00000110: 2679 a7bc a19a fcbc 27db 453d 2e56 30bd
00000120: 7e7f 72bd 7a80 923b 592c 12bb 6c5a 91bc
00000130: 850d 773d 9b74 60bb dd8b 88bd d27b cebc
00000140: cc03 853d 4572 b23a d6a3 053d ad58 343c
00000150: 9c28 f9bc a756 27bd 261c b1bc 4232 69bd
00000160: 966b 3cbd e30f 2e3d f531 44bd d5af d5bc
00000170: 6647 863d 519d edbc a506 0c3d fda0 203d
00000180: 5c3e 893b 93ed f43c a31a 263c 6f8e c8bc
00000190: fe3c 95bc fd95 f93c 201e 5a3d affd 6c3d
000001a0: c8a0 06bd 93ad 2b3d 9e0d 1dbd 83cc 303d
000001b0: e29d 5abd c500 e53c 88c5 113d cc54 043d
000001c0: dfa6 e1bc 9f09 b63b a527 7fbb 4768 423c
000001d0: f54a 5dbd 7a86 cd3c 8101 87bd 78cb 39bd
000001e0: 8049 2dbd e406 693d c909 013b 9b80 27bd
000001f0: b411 113d 8805 9e3c 0db3 ba3c 442c 253d
00000200: b7f7 e3bb 71c2 89bc 74d4 f73b 4cb4 d0ba
00000210: a5e7 d2bc 2dd7 4e3d 93f6 703c 92e2 f23b
00000220: dda4 0e3c 6afb 57bb feb3 6ebd d9fb 83bc
00000230: c646 4c3d 9289 7a3d e2a1 923c 12da 353d
00000240: d8d1 2d3c 2917 17bd 6c79 303c 5bb2 60bb
00000250: 2705 73bc de4c cabc 7d02 773c ee10 a53d
00000260: f48a 94bd 2f61 3ebd 4e2d 08bd b232 54bc
00000270: e6f8 e7bc a522 a5bc d7d5 273d 7dfe 07bd
00000280: 18b1 73bc 111c 583d d4df 4f3d 04cd 12bd
00000290: 6e89 073d fd70 833d dd51 dbbc f384 cc3a
000002a0: 1089 48bb 7b38 333d e4bb 45bb 5692 573d
000002b0: d4c8 193d 1aea e539 d8d8 f33c e799 403d
000002c0: 6121 8b3b 911f 94bc f18b 273c 819e c53b
000002d0: 804c 863d b25e 9a3c c6d7 5d3d 7133 223d
000002e0: 533b a93c 0eb0 89bd 55e8 d6bc 255c e8bc
000002f0: 5ea1 1fbd aabb 32bd 38ee 95bd a73b c33c
00000300: de40 fabc 914b b93c 4250 12bd b603 fe3c
00000310: 28bf 45bd 0fcd 023d 39dd 1e3d 6b5a 89bc
00000320: c7c6 59bc 4c32 483c e46f 043d ac61 ee3c
00000330: fe1c 7f3c 8d68 1ebc 1b60 9e3c d7f3 bbbc
00000340: 00c3 133d 549d a23c 67b1 463d 8846 083c
00000350: 52ee c7bc dcb7 0bbc 7e47 e63a 4808 e53c
00000360: c254 07bd 7c84 3fbc 7117 31bd 0143 7abd
00000370: 8705 d83b dab6 e5bc 7186 3ebd e487 f93c
00000380: 3a88 833d 6cfd b23c 390c 61bd 69c5 433d
00000390: 3997 7a3b d03a 1ebd 8bf1 42bd c70f 293d
000003a0: 3878 c2bc ae99 853d 6cba 4ebc 5dda 4dbd
000003b0: 133e 813d ea44 7f3d 6a8d 71bd 1188 e1bc
000003c0: 2cd9 58bb 941c fb3c 4026 8a3d e79f 96bd
000003d0: 8002 063d abcd 15b9 9d87 813d a594 1f3d
000003e0: 9239 c63c d4a4 623d 73b5 593c d1f4 3d3d
000003f0: 63d0 623d f175 cebc 1827 29bd b6ed 5e3d

bias f4 [128]
-0.040751528 0.03127997 0.04674373 -0.11195543 0.009189746 -0.12665646 0.005116042 -0.09302915
0.055748146 0.001813911 -0.04999756 0.014870563 -0.0016034094 -0.025268476 -0.050910864 -0.0056129177
-0.06859185 -0.031001817 0.043561615 -0.042044513 0.03218769 0.047363147 -0.04974205 -0.018646391
-0.047025356 0.0058434047 -0.07096396 0.10678835 0.055937324 0.04159002 -0.041492335 -0.038781263
0.0416806 0.028417883 0.019085864 -0.014617335 -0.018578786 0.055823553 -0.03205419 0.0016563395
0.013779882 0.016913332 0.039429694 -0.049636606 0.06471892 0.098549984 0.017189233 0.06724507
0.07095489 0.022036435 -0.003101038 -0.011704326 -0.020144667 0.06976732 0.03319986 -0.036958344
0.053774484 0.02451556 0.06329997 -0.035501994 0.06543127 0.04891333 0.026437394 0.0641183
-0.078783415 0.11996611 -0.042773414 0.021472117 -0.039136834 0.013029003 0.023402002 -0.030148588
-0.08935295 -0.09067889 0.03781795 0.0018989689 -0.025264746 -0.04902273 0.0072441115 0.044756185
0.0009995248 -0.008016997 0.0077390904 0.102107264 0.016969986 -0.10321092 -0.019611662 0.033750672
0.045469012 0.056769103 -0.062032063 -0.055130485 -0.021451881 -0.10088718 0.019058403 0.0005020142
-0.01484666 0.03443889 0.016101025 0.013562502 -0.019311253 -0.045783974 -0.031017523 0.018362476
-0.08739392 0.03344308 0.048721913 0.025181374 -0.08981348 0.049104415 -0.09827765 -0.013761564
-0.0686655 -0.04580422 -0.01603035 0.058250584 0.06781269 -0.020942615 0.08617843 0.026099378
-0.008173432 -0.008624336 0.06529148 -0.038453 -0.033815883 0.011668762 -0.029903851 0.0832251
00000000: 13eb 26bd 6d1f 003d 5a76 3f3d e348 e5bd
00000010: 9790 163c 3bb2 01be 79a4 a73b 1186 bebd
00000020: 2b58 643d c1c0 ed3a 3eca 4cbd a9a3 733c
00000030: 7e29 d2ba d6ff cebc e987 50bd 91ec b7bb
00000040: e279 8cbd 86f7 fdbc aa6d 323d de36 2cbd
00000050: 3dd7 033d dcff 413d 52be 4bbd 51c0 98bc
00000060: a99d 40bd 087a bf3b 8d55 91bd dab3 da3d
00000070: 891e 653d 4c5a 2a3d def3 29bd 1ad9 1ebd
00000080: 47b9 2a3d 9fcc e83c f559 9c3c 8c7d 6fbc
00000090: 8a32 98bc 3da7 643d 414b 03bd 8819 d93a
000000a0: 04c5 613c d48d 8a3c 0881 213d c14f 4bbd
000000b0: 5a8b 843d 93d4 c93d 6fd0 8c3c c9b7 893d
000000c0: cc50 913d c185 b43c c93a 4bbb 80c3 3fbc
000000d0: 6e06 a5bc 2be2 8e3d 94fc 073d a261 17bd
000000e0: a242 5c3d dbd4 c83c 6aa3 813d 8a6a 11bd
000000f0: d400 863d 5859 483d 3c93 d83c 7550 833d
00000100: 3359 a1bd cbb0 f53d 2d33 2fbd 4be6 af3c
00000110: f24d 20bd 9977 553c 8eb5 bf3c 2cfa f6bc
00000120: aefe b6bd dbb5 b9bd ffe6 1a3d d3e6 f83a
00000130: 03f8 cebc 0fcc 48bd 0360 ed3b 4352 373d
00000140: 7d02 833a b959 03bc 3298 fd3b 9d1d d13d
00000150: a404 8b3c 3f60 d3bd a3a8 a0bc 253e 0a3d
00000160: b73d 3a3d b886 683d 5515 7ebd 81d0 61bd
00000170: dbbb afbc f09d cebd 5e20 9c3c 9a99 033a
00000180: 683f 73bc cb0f 0d3d 4ce6 833c 4235 5e3c
00000190: a232 9ebc fa87 3bbd 7618 febc e76c 963c
000001a0: 95fb b2bd 9cfb 083d a190 473d 2b49 ce3c
000001b0: 21f0 b7bd b621 493d cb45 c9bd 2f78 61bc
000001c0: 7fa0 8cbd 359d 3bbd 1552 83bc 2a98 6e3d
000001d0: 61e1 8a3d d98f abbc 517e b03d 5dce d53c
000001e0: dce9 05bc 164d 0dbc 8ab7 853d e580 1dbd
000001f0: 8682 0abd 562e 3f3c ecf8 f4bc ec71 aa3d

weight f4 [16, 128]
0.0154214 -0.048806533 0.0057380074 0.10647817 -0.1018255 0.14820424 -0.052661363 0.1428001
-0.07934303 -0.062045496 -0.057674404 0.009725011 -0.008654916 0.07578227 0.049346168 -0.12854898
0.02697911 -0.08668649 -0.08178539 -0.00054254424 -0.14282592 -0.17084374 0.039006714 0.013793653
0.0031389853 -0.011383017 -0.07121663 -0.007762959 -0.04466727 -0.0855543 0.02954195 -0.08343986
0.043074854 0.010741398 -0.06906685 -0.005858691 0.11779546 -0.043496843 0.055501465 0.122367255
-0.09596197 0.069931544 -0.017456558 0.14031653 -0.14745095 -0.15110247 -0.14400028 -0.07729763
-0.10325578 -0.033893526 -0.1088817 -0.08226058 -0.014352263 -0.014928826 -0.0017447491 0.014471438
-0.026308032 0.042567123 -0.03865076 0.02614006 -0.07542879 0.0041037775 0.13036613 -0.010178159
0.085004024 -0.14431787 0.13803305 -0.008015611 0.011798433 -0.028277202 -0.024786577 0.0432128
0.064102724 0.15807685 -0.032457966 0.17568928 0.0049373503 -0.036898218 0.123670645 -0.010498146
-0.050127354 -0.16605751 0.03824622 -0.16214699 -0.16144152 0.12195802 -0.11485989 -0.012643156
0.0068604527 -0.05113627 0.028025476 0.051042892 -0.072852835 0.17723857 -0.010041729 0.022333773
-0.11885729 0.009775711 0.073081076 0.08730051 0.029063785 0.07174187 0.087518126 -0.0067012166
0.034068532 -0.0132297 -0.01905025 0.037551396 0.14445643 -0.018567096 0.088687286 0.04707851
0.07991695 0.052672293 0.08045823 -0.07432248 -0.033035606 -0.07026257 -0.09493452 -0.081988886
-0.08225103 0.064404234 0.031715803 0.08932718 0.11716074 0.09974225 -0.017836072 -0.054578513
-0.06230327 0.05665299 0.030851739 0.0795347 0.06633754 0.12877269 0.09871964 -0.024484837
-0.013539359 -0.09594085 0.0040890314 0.09586074 0.048956186 -0.0036253254 0.045681078 0.001142682
0.053223174 0.033984654 -0.043419193 -0.014872207 -0.012204947 -0.071718276 -0.028275037 0.06564842
0.0533026 -0.05641898 0.00015380514 -0.07255696 -0.015236458 -0.0762902 -0.033997655 0.08579674
-0.06977836 0.097198345 0.0046114656 0.030337932 0.059289485 -0.082889244 0.0126907425 0.050232716
-0.055256873 0.054695666 0.03850511 0.017524892 -0.11265562 0.027802598 -0.038192354 0.061710127
-0.053439952 0.034200285 -0.050282363 -0.1430797 -0.022312034 -0.024256881 -0.007507349 0.05458723
0.03775278 0.099246785 -0.042287942 -0.0841183 0.0227246 0.060401484 -0.013369283 -0.002868827
0.07794631 0.024813322 0.09152779 -0.08017688 -0.050231863 0.045771684 -0.09021852 0.06506742
-0.06827822 0.047859125 -0.0012283962 -0.0454357 0.040322166 0.07743879 0.045591254 0.08288688
-0.0402354 -0.046542156 0.07653909 -0.11067506 -0.044221513 0.099828705 0.091418155 0.014629
0.023059295 -0.15361367 0.0142194815 0.086557426 -0.06536671 0.01532452 0.034282003 -0.058378056
-0.07800943 -0.039411087 0.028577223 0.08414304 0.0074565434 0.09632224 -0.043850202 -0.12712002
-0.05307183 0.040094614 -0.057031773 0.06220355 0.09006226 0.012814685 0.10103116 0.021364858
0.060885377 -0.07679556 -0.03169005 -0.11344556 0.015753638 0.035249002 -0.10702532 -0.08513746
0.011653758 0.075205356 0.043990232 0.009486666 0.045249414 0.079976745 -0.035684314 -0.0023826729
00000000: 0aaa 7c3c 5ce9 47bd e505 bc3b 3a11 da3d
00000010: e389 d0bd dac2 173e 71b3 57bd 303a 123e
00000020: 997e a2bd 6b23 7ebd ff3b 6cbd a755 1f3c
00000030: 59cd 0dbc bc33 9b3d 351f 4a3d 58a2 03be
00000040: 4b03 dd3c b088 b1bd 197f a7bd 8739 0eba
00000050: f540 12be a9f1 2ebe 81c5 1f3d c6fe 613c
00000060: 6fb7 4d3b d57f 3abc 06da 91bd 6c60 febb
00000070: 07f5 36bd 1837 afbd f601 f23c 84e2 aabd
00000080: 426f 303d b0fc 2f3c ec72 8dbd 43fa bfbb
00000090: bf3e f13d bf29 32bd 8155 633d af9b fa3d
000000a0: b687 c4bd 4538 8f3d 0e01 8fbc 23af 0f3e
000000b0: 62fd 16be 9bba 1abe cf74 13be 384e 9ebd
000000c0: c477 d3bd f0d3 0abd 5efd debd 3c78 a8bd
000000d0: c125 6bbc 0998 74bc 11b0 e4ba 9c19 6d3c
000000e0: f183 d7bc dd5a 2e3d 4250 1ebd ae23 d63c
000000f0: 697a 9abd fb78 863b b37e 053e 4bc2 26bc
00000100: 9716 ae3d 10c8 13be 8958 0d3e e953 03bc
00000110: 374e 413c 97a5 e7bc 380d cbbc e8ff 303d
00000120: 4a48 833d e6de 213e a5f2 04bd e4e7 333e
00000130: 7fc9 a13b 9622 17bd 0947 fd3d 6a00 2cbc
00000140: 5752 4dbd fb0a 2abe 12a8 1c3d dc09 26be
00000150: ed50 25be 20c5 f93d a93b ebbd 3d25 4fbc
00000160: a6cd e03b 4474 51bd af95 e53c 5a12 513d
00000170: de33 95bd 077e 353e 1086 24bc 51f5 b63c
00000180: 736b f3bd 4e2a 203c 88ab 953d 9cca b23d
00000190: 2d17 ee3c 67ed 923d b43c b33d e195 dbbb
000001a0: 728b 0b3d 62c1 58bc 450f 9cbc 7ecf 193d
000001b0: 63ec 133e 061a 98bc aea1 b53d 65d5 403d
000001c0: 7fab a33d e7be 573d 49c7 a43d 6236 98bd
000001d0: 5850 07bd d3e5 8fbd 086d c2bd cae9 a7bd
000001e0: 3a73 a8bd 5ee6 833d 6ee8 013d 2bf1 b63d
000001f0: f8f1 ef3d aa45 cc3d f41c 92bc b88d 5fbd
00000200: b731 7fbd f70c 683d c9bc fc3c 17e3 a23d
00000210: fadb 873d fddc 033e 862d ca3d 6d94 c8bc
00000220: 30d4 5dbc a37c c4bd 48fd 853b a352 c43d
00000230: 4886 483d de96 6dbb 151c 3b3d 0cc6 953a
00000240: 8b00 5a3d 7e33 0b3d 53d8 31bd 8faa 73bc
00000250: 42f7 47bc 08e1 92bd 0da1 e7bc ae72 863d
00000260: d453 5a3d 9717 67bd c146 2139 be98 94bd
00000270: 56a2 79bc 093e 9cbd 2041 0bbd 34b6 af3d
00000280: f5e7 8ebd ed0f c73d c71b 973b 4187 f83c
00000290: 88d9 723d d6c1 a9bd d5ec 4f3c d2c0 4d3d
000002a0: 0855 62bd 9008 603d 89b7 1d3d 5d90 8f3c
000002b0: fdb7 e6bd 46c2 e33c 966f 1cbd c2c3 7c3d
000002c0: dae3 5abd 9915 0c3d e1f4 4dbd 7c83 12be
000002d0: bac7 b6bc 5eb6 c6bc 3500 f6bb dc96 5f3d
000002e0: a9a2 1a3d e641 cb3d 1f36 2dbd 3746 acbd
000002f0: f128 ba3c 8c67 773d d60a 5bbc ee02 3cbb
00000300: 51a2 9f3d 4f45 cb3c ec72 bb3d c733 a4bd
00000310: edbf 4dbd 177b 3b3d 7dc4 b8bd 1142 853d
00000320: 74d5 8bbd ee07 443d 2302 a1ba c91a 3abd
00000330: db28 253d 3a98 9e3d e5bd 3a3d 99c0 a93d
00000340: e0cd 24bd fda2 3ebd 87c0 9c3d 9ba9 e2bd
00000350: 9e21 35bd fe72 cc3d 7139 bb3d 79ae 6f3c
00000360: d9e6 bc3c e74c 1dbe d4f8 683c 0545 b13d
00000370: fbde 85bd b213 7b3c 496b 0c3d d41d 6fbd
00000380: 68c3 9fbd 856d 21bd c81a ea3c 3053 ac3d
00000390: 0556 f43b 9844 c53d 459c 33bd c02b 02be
000003a0: d961 59bd 403a 243d 269a 69bd 26c9 7e3d
000003b0: 9072 b83d aff4 513c 6de9 ce3d 5b05 af3c
000003c0: f262 793d fe46 9dbd 6dcd 01bd 2556 e8bd
000003d0: c60d 813c 4261 103d 1730 dbbd 8c5c aebd
000003e0: 67ef 3e3c 4405 9a3d 1a2f 343d f66d 1b3c
000003f0: 7357 393d d9ca a33d b729 12bd 9e26 1cbb
